text_classifier.pth (torch, 396944 bytes, 4 tensors)

fc.0.weight f4 [128, 768]
00000000: 8688 f6bd 8715 453d 957f 21be 26f1 74be
00000010: d249 7cbe 59eb 0cbe e9de d8bd cc0f 113c
00000020: 9d7e b13d 2314 aa3d 09e9 1ebd 98eb ea3c
00000030: 6b99 af3d e8fa c738 ec9c 37be b84f ad3d
00000040: a1ea 5abd a3f2 81be 2320 e6bc 01b4 4fbd
00000050: 25db 76bd 6516 fc3d 6ffc 5cbe bc38 df3c
00000060: 53b9 203e 1f42 7cbd 9165 22be d3f8 04be
00000070: fa00 d33d b8b6 d43c c086 54bd b058 d0bd
00000080: 7b26 68bd d068 8cbc 0eab 45bb d8c6 1ebb
00000090: a5e8 24bd 5484 e7bd 4872 4a3e 6a34 3abe
000000a0: d371 733e 41e5 a8bd 3833 153d f2f7 75bd
000000b0: f506 afbd 56cd 8b3d fd0f 21bd 9e99 54bd
000000c0: 5861 c23d 8471 81be 6865 d43d 6b77 0cbe
000000d0: 9308 cd3d 7805 b5bd ea6e b33c 980d 35be
000000e0: f268 f93c a0cc 373d 6f31 473e d980 d9bc
000000f0: 998c 20be baa4 163e 6256 b3be 99a6 95bd
00000100: db5e 8c3b 86d5 ee3d 78b6 5d3c df5f fdbd
00000110: 878c e8bb 06c3 e83d f598 29be 2035 15be
00000120: ee19 2e3c c9c4 a43b 33b8 0fbd 5a46 c1bd
00000130: 5459 ccbd 72e6 76bd 7b5d 8ebc eac1 983d
00000140: 7670 c93c 671b 983c 3a70 593d f992 3b3d
00000150: 0c5f 7bbe a93f cabd 9fde d23d 2827 21be
00000160: b5e7 053e 0cfd a53d 9371 55be b35f 11be
00000170: 4722 c23c a07c cb3c 401f ac3d 65bc 2dbc
00000180: 4381 cd3d e6c3 d83d 8a24 19be ab72 953e
00000190: 463a a13d 1fea 1a3d e9e9 073e 456b bfbd
000001a0: e66a 8cbd 0e36 43be b531 d73b b6b6 033e
000001b0: efe4 acbd af72 0ebe b740 223d 7b07 c0bd
000001c0: e368 ffbc 85a0 023e 058b 70bd d9ad a0bc
000001d0: 4883 643d aa5b 17be 1501 bf3d 8b37 39bd
000001e0: b811 29be 02e1 d83c 3bba 14bd aa4e 12bb
000001f0: aa74 333e 9589 38be a68f 4c3c 6c97 60be
00000200: 91f0 6c3c 38d4 c03d 5015 8ebd b2af f6bd
00000210: f310 39bd 519e acbc 4a80 ad3d 6799 e1bd
00000220: a3ac 263d f498 063e fb41 91bb 6cb7 8bbd
00000230: 0ebc 47be 505f 2b3e b887 793b 10f8 9dbd
00000240: 07bb 363d 3be4 c0bd efa5 32be 67b6 dd3d
00000250: 5039 69bc e78c 56be b6f3 d4bd 9629 ea3b
00000260: 7fa1 afbd 219a 2c3e dd53 02be 5c95 993c
00000270: 719d 8cbe 9189 66bd e9e7 aebc e7bc 9b3c
00000280: c43e 1f3d f22f 69be de24 f13c b555 d0bd
00000290: 16cb d93d 4878 9c3d 41b7 8f3d 1f58 b0bd
000002a0: ac5d b5bd 6cbe ca3d 5d5e fc3d 172a 033e
000002b0: 50f9 67bd 781d bfbd 7758 75be 0fbe 33be
000002c0: 1565 7e3d be86 0ebe 4481 fa3c 8644 123d
000002d0: fb9b 943d d336 ca3c 3ba0 cf3d d78d 90bc
000002e0: de01 d5bd 2578 033e 8cdf 8cbe 24bb 153e
000002f0: fdfa 9b3d 1378 59be cf7b 89bc 60f3 193e
00000300: fbf6 3abe b207 b53c 9050 0abe 13f3 4cbd
00000310: 7087 57be 4f65 c5bd 6133 c0bc b9da 663e
00000320: 881f f03d 42e1 edbd 61b8 d1bc f6c7 803e
00000330: aa0b 10be ea02 353e b538 033e 6ae6 0a3e
00000340: 9111 923e b724 17be 3503 b53d 9ef5 24bd
00000350: 3236 18be 422e a53e 2551 a7bb 56e4 c5bc
00000360: eeea 423d 0e99 00be 308f bc3d aa76 363d
00000370: a9c0 52bc 42de 96bc c601 1e3e 7d9b 03be
00000380: f39c ab3c 22ed 65bd 848a 6e3e 27e4 9cbd
00000390: f0f5 943c 71d3 8fbd 9b58 643e cdbd 0ebd
000003a0: d328 15bd 026e e83d e39d db3d 122e 48be
000003b0: 3c7e 7d3e c283 d8bc c994 343e 8831 97bd
000003c0: fed4 20be e253 6cbd 9a6d 283c 6296 5ebe
000003d0: 36f0 22be 4279 fabc 2802 8abd 693b 933d
000003e0: ee94 4e3e 40f9 92bc 0bb3 5dbd 7c22 30bd
000003f0: f65c c83d f1fe 1e3d 65b0 82bb e67a 1e3d
-0.120377585 0.048116233 -0.15771325 -0.23920116 -0.24637535 -0.13761653 -0.10589392 0.008853864
0.08666728 0.08304622 -0.03879646 0.028676793 0.08574184 9.5357944e-05 -0.17930955 0.08462471
-0.053446416 -0.2538043 -0.028091496 -0.050708774 -0.060267586 0.12308959 -0.21580671 0.027248733
0.15695696 -0.061586495 -0.15859057 -0.12985544 0.10302921 0.025966033 -0.05188632 -0.10173166
-0.056677323 -0.017139822 -0.003016177 -0.0024227407 -0.04026093 -0.113045365 0.19770157 -0.18184057
0.23773889 -0.08246852 0.0364258 -0.060050912 -0.08546249 0.06826274 -0.03932189 -0.051904313
0.09491223 -0.25281918 0.10370904 -0.1371743 0.10011401 -0.08838934 0.021903474 -0.17680967
0.03044555 0.04487288 0.19452451 -0.026550697 -0.15678634 0.14711276 -0.35026842 -0.073071666
0.0042837686 0.1166182 0.0135322735 -0.123718016 -0.0070968303 0.11365323 -0.16562255 -0.14571047
0.010626299 0.0050283414 -0.035087775 -0.094372466 -0.099779755 -0.060278364 -0.01737856 0.07458861
0.024589758 0.018567754 0.053085543 0.04579446 -0.24547976 -0.098754235 0.10296368 -0.15737593
0.1307667 0.081049055 -0.20844106 -0.14196663 0.023697985 0.0248397 0.08404398 -0.010603999
0.1003442 0.1058424 -0.14955345 0.29189047 0.07872443 0.03782093 0.13272823 -0.09346632
-0.06856327 -0.19063589 0.006567205 0.12862667 -0.08442103 -0.13910936 0.039612498 -0.09376427
-0.031177944 0.12756546 -0.05872633 -0.019614147 0.055789262 -0.14781061 0.09326378 -0.045218986
-0.16510665 0.02647448 -0.036310416 -0.002232472 0.17524973 -0.18021233 0.01248542 -0.21932763
0.014461652 0.094154775 -0.06937659 -0.1204523 -0.04518218 -0.021071585 0.08471735 -0.11015587
0.040691983 0.13144284 -0.0044329143 -0.06822094 -0.19505331 0.16735578 0.003807528 -0.0771333
0.044611957 -0.094185315 -0.17446111 0.10825806 -0.014234856 -0.20952187 -0.10398047 0.0071460707
-0.08575725 0.1685567 -0.12727304 0.018747978 -0.27463868 -0.056283537 -0.021350818 0.019010974
0.038878217 -0.22772196 0.029436525 -0.10172597 0.10634439 0.07640129 0.07017375 -0.08610558
-0.08855757 0.09899601 0.12322686 0.12809025 -0.056634247 -0.093317926 -0.23959528 -0.1755297
0.062108118 -0.13918588 0.030579217 0.03570988 0.072563134 0.024684345 0.101379834 -0.01764576
-0.10400747 0.128388 -0.27514303 0.1462217 0.076162316 -0.21237211 -0.01678267 0.15034246
-0.18258278 0.022098396 -0.13507295 -0.0500365 -0.21047759 -0.09638464 -0.023462 0.22544374
0.11724764 -0.1161523 -0.025600614 0.25152558 -0.1406695 0.17676893 0.12814601 0.13564458
0.28529027 -0.147601 0.08838502 -0.0402733 -0.14864424 0.32261854 -0.0051061087 -0.02415673
0.047587328 -0.12558386 0.09206998 0.04454676 -0.012863317 -0.018416528 0.15430364 -0.12852283
0.020948863 -0.05613435 0.23295027 -0.07660704 0.018183678 -0.07022751 0.22299425 -0.034848977
-0.036415886 0.11349107 0.10723474 -0.19548824 0.24755186 -0.026430015 0.17634882 -0.07382494
-0.1570625 -0.057697184 0.010280037 -0.21737054 -0.15911946 -0.030575398 -0.067386925 0.07189066
0.20174 -0.017941117 -0.054125827 -0.043001637 0.09783356 0.03881735 -0.003988313 0.038691424

fc.0.bias f4 [128]
00000000: b71c 16bc e882 9a39 80d2 49bc f6a4 0bbd
00000010: 3a9f 6cbd a2ae ccbc ef6d d0bb 4c07 2f3c
00000020: b4a7 10bc 3e4f 7a3c 7069 0abb ba00 d6bc
00000030: bd37 eb3a eabc acbc 9ede 8cbc e0d5 173c
00000040: d812 dcbc b1f8 22bc 8ad9 79bc da25 fbbb
00000050: e1ae a7bb ce60 563c ede7 dc3a 39ec ae3b
00000060: 2c14 26bc 00d7 d3bb 1276 a63c ecf4 48bd
00000070: 1670 743c 5942 c1bc 47b1 8f3c 7cfe 08bd
00000080: 28c4 ffb9 84c4 8dbc 978f bd3c 6bf7 673a
00000090: c59a 5fbc 44a7 b838 7cac df3c c045 b23c
000000a0: 24c5 b0bb 9b68 3cbb cea7 c6bb eab3 a43c
000000b0: 10f5 90bc 9879 be3a cbb1 d0bc 2ea4 d6bc
000000c0: 55f6 c8bc 2568 3f3d da88 0d3c 9f28 b53c
000000d0: df54 d9bc 824c 2c3d 04c3 2fbd ce4e 37bb
000000e0: f016 81bc 9935 54bb fb9b 113c 8224 f5bc
000000f0: 9066 48bd 7c0b 71bd 970e 35bc 79b6 de3c
00000100: 4c4a 6dbd c2df 2a3d 4d45 0fbd 37f5 11ba
00000110: 8e66 e4bc 2ce6 713a d6ea 2fbd 94b9 053d
00000120: deb3 b6bc e29b dc3c afdb 8dbc faa4 983c
00000130: 160f 1d3b d0c4 0ebd de90 03bc 2e32 05bb
00000140: 6f06 3c3c b461 c1bc e9b0 77bd b375 b8bb
00000150: e941 953c 86ca 56bc d4f0 243c 93d6 41bc
00000160: a2ed f9ba 0e4d 47bb 762d 40bc 1ad7 013d
00000170: aaf7 3a3c e4ef 3fbb 2413 893c 7efc 9fbc
00000180: bd93 abbc 5a31 b0bc 4ddc 4fbc 9831 32bc
00000190: 9352 c73b 508a e8ba e11e ef3c bdd4 d1bc
000001a0: 2598 57bd 4af6 c8bc 0677 91bc 09ba 6c3c
000001b0: 723b 9cbb 79f9 18bd 8de3 c6bc 053c 95bc
000001c0: 9e12 3dbc 6833 8dbc 3c4f d7ba 9e94 e2bc
000001d0: f5cd 60bb afc7 753c 3ea3 573c 4c84 5b3d
000001e0: fc00 33bd 8610 5d3c 14b1 593c d21e 44bd
000001f0: ae19 1a3b fe9a cd3c 0961 14bd 1ce8 c43b
-0.00916212 0.00029470702 -0.0123182535 -0.034092866 -0.057769038 -0.024985615 -0.0063607614 0.010682892
-0.008829046 0.015277682 -0.0021119975 -0.026123393 0.0017945688 -0.021086175 -0.017195996 0.0092673
-0.026864454 -0.009946988 -0.015249619 -0.0076644244 -0.0051172827 0.0130846035 0.0016853787 0.0053382185
-0.010136645 -0.006464839 0.020319972 -0.0490617 0.0149193015 -0.023591207 0.017540587 -0.03344582
-0.00048783538 -0.01730562 0.023139758 0.0008848819 -0.01364774 8.804959e-05 0.027303927 0.021761775
-0.0053945947 -0.0028748873 -0.0060624843 0.020105321 -0.01769498 0.0014532087 -0.025475403 -0.026201334
-0.024531523 0.04673018 0.008638585 0.022114096 -0.026529728 0.04206515 -0.04291059 -0.0027970555
-0.015758008 -0.003238058 0.008887286 -0.029924635 -0.048925936 -0.058848843 -0.011050842 0.02718662
-0.057932183 0.0417173 -0.0349782 -0.0005567851 -0.027880933 0.00092277187 -0.042948566 0.032647684
-0.022302564 0.0269298 -0.017316667 0.018633354 0.002396529 -0.034855664 -0.0080301445 -0.00203241
0.011476143 -0.023606159 -0.06047145 -0.005629265 0.018219905 -0.013109809 0.0100671835 -0.011830944
-0.0019068012 -0.0030410918 -0.011729589 0.031699277 0.011411587 -0.0029287273 0.01673276 -0.019529577
-0.02094447 -0.021507908 -0.012686801 -0.010876082 0.0060828417 -0.0017741416 0.029189529 -0.025614137
-0.05263533 -0.024531502 -0.01775695 0.014448651 -0.0047678286 -0.03734729 -0.024278427 -0.018217096
-0.011540083 -0.017236426 -0.0016426812 -0.027658757 -0.0034302447 0.015001222 0.013161479 0.053592965
-0.04370211 0.013492709 0.013286848 -0.047880955 0.0023513841 0.02509832 -0.036225352 0.006009115

fc.3.weight f4 [2, 128]
00000000: 514a 95bd 21c3 27bd 49c3 a13e 9db2 29bd
00000010: a084 ac3e a512 b33e b114 8d3e d51c 093d
00000020: f053 a0bc 60a9 01be ae2f 81bd f43c a9bd
00000030: 1a2a aa3e 18f9 cbbd ebc2 723e 247a e9bc
00000040: f14f a23e f539 40be 8693 3dbd 6b60 903c
00000050: 55fd 3dbd 14e6 11be ef6e 863e ca22 9dbd
00000060: af59 1c3c 8b28 24bd 8eb0 c93b 96b0 a6bd
00000070: 22de f7bd be83 433e abf3 09be d874 563c
00000080: 354d 19be f049 d0bd f2ba 87bd 56ff 1e3d
00000090: 1ab9 853e ded8 dabd 605d 6dbd 49f7 b4bd
000000a0: 6771 06bd 3ba6 523d 4065 0bbd 7d86 2ebe
000000b0: 4eda 04be 5bac 663e f354 683d ac8a b73e
000000c0: cd14 603e 0f36 79bd 4245 75bc d96f c3bd
000000d0: 35f4 613e 4909 ebbd d12c ccbd 996f 06bd
000000e0: 1531 88bd db8c 843e b0f7 47bd 43f1 d3bd
000000f0: de92 323e 7a1d 8bbe 4daf 6cbd c1e7 84bd
00000100: 0268 783d f9c9 88bd d89e 413d a702 72bd
00000110: 8e2d 863e d824 b2bd f869 68be 1b57 8cbd
00000120: 5d0a 2dbe a21d 2b3d 9e7a 34bd e39a d1bd
00000130: 47e3 26bd b3c8 e8bd 4b78 72bd d382 4b3e
00000140: f319 fa3c 30c3 473c f015 03be c523 9d3e
00000150: a926 b9bd b1dc 413e 8c4c 033b 6c29 76bd
00000160: fdab f43d cee1 d8bd 3f50 72bd 0281 17be
00000170: 587a 3e3e a961 c9bc 68f2 543e 499e 11bd
00000180: e33d 9a3e f07e a33d 375d 08be be06 d03e
00000190: 323f ce3c e025 a23e debb 90bd b7d9 9f3d
000001a0: 0dce a13e 30c5 14bd 1168 19bc 2c02 64be
000001b0: ef75 5b3e ae97 82bd 246a 943d 2587 b3bc
000001c0: b204 07be 4bc3 68bd 2574 873e 6168 0c3d
000001d0: ec7c 91bd f6a4 a7bd 0b85 e7bd 9e37 cb3c
000001e0: e406 76be ef12 863e 2805 6f3c 0a5b 803e
000001f0: 67a5 27be 8e4c 553d 57a4 913d 8af7 0f3e
00000200: da9d 023e e58d 1e3e 9b9e 97be 60c6 6bbd
00000210: b2e9 6ebe 9fbc 87be 76b3 50be 857b 9dbb
00000220: 7091 623d f960 8a3d 27ca 893d 5c37 003e
00000230: f42a b0be 0a36 7c3d 052c 53be 69db a73d
00000240: 5bcb b3be c9f0 453e bdec c63d e168 9f3d
00000250: 3ba3 063e 5c15 f53d bdbd 4fbe 576f 0e3e
00000260: a4ea 23bd cf7b 37bc 1ec7 36bd c8f9 d93d
00000270: b6b8 793d dc9c 6bbe d825 7e3d 928a 64bc
00000280: 84ca 463e 6a64 513d 9174 943d 540f 8abd
00000290: 3960 6fbe a9de a3bc 2dc7 fc3d 4ab5 233e
000002a0: d884 8cbd 994e 9cbc bed1 d83c 67f9 923c
000002b0: 4e55 003e ba4f 4fbe fdc1 d23c 5947 c6be
000002c0: 12ef a0be 98bb c63d c05c 0b3e f49a d53d
000002d0: d235 86be 53bd 083e f841 343d b6d1 903d
000002e0: 781f ce3d 69a8 82be 87df 323d 37eb 173c
000002f0: 64fd 56be 9f29 593e 7060 f73d 5466 a33d
00000300: 635a 7cbd eb6a 273e ff4c 78bc d539 293d
00000310: 7a32 93be 2558 333d 8f23 803e b7c2 f83d
00000320: 4745 ab3d 6ec3 fa3c be4f 26bd 4a1a e03d
00000330: 8952 993d 3495 0a3e 161a e33d ca43 34be
00000340: 3e23 98bd 2395 53bb 73c1 2e3e b953 a9be
00000350: 67a9 743d d26e 93be 7afb 7a3d 2190 a03d
00000360: 0819 72be a32b 29bc f693 0c3d 5188 913d
00000370: aec6 90be 35d2 96bd a23a a0be 23cd 5dbd
00000380: a59f bbbe 08a7 ae3d 05d4 dd3d 9fc4 96be
00000390: caf0 d6bc 39f5 a6be 7439 5b3d edc8 66be
000003a0: 80d4 82be ad17 3dbd 8df3 1bbd e332 203e
000003b0: ae60 8cbe 5fc8 bebc 02f5 aa3d 1f79 923d
000003c0: aa16 623c 51c9 a5bd 839d 40be 1465 8e3c
000003d0: 3acf a53d b5b9 953d 384e 1b3e a633 dc3d
000003e0: a342 c73d 8110 5abe 92db 93bd 8861 1cbe
000003f0: ad85 1b3e 6a0d df3c c8d4 753d b56d 56be
-0.07289565 -0.040957574 0.31594303 -0.041430105 0.33694935 0.34975162 0.2755485 0.033474762
-0.019571275 -0.12662268 -0.06307922 -0.08263579 0.33235246 -0.0995962 0.23707168 -0.028500624
0.31701615 -0.18772109 -0.046283267 0.0176241 -0.046384174 -0.14247924 0.2625651 -0.07672651
0.009542867 -0.040077727 0.00615508 -0.0813915 -0.12102915 0.19093224 -0.13471858 0.013089381
-0.14970858 -0.101703525 -0.06627454 0.038817726 0.26117784 -0.106858954 -0.057950377 -0.088362284
-0.032822993 0.05142806 -0.034032106 -0.1704349 -0.12973902 0.22526686 0.05672164 0.35847986
0.21882935 -0.06084257 -0.014970126 -0.095428176 0.22065814 -0.114763804 -0.099694856 -0.03282127
-0.06649987 0.25888714 -0.048820198 -0.103487514 0.17438838 -0.27170926 -0.057784367 -0.06489516
0.060646065 -0.06679148 0.047270626 -0.05908456 0.2620663 -0.08698434 -0.22696674 -0.068525515
-0.16898485 0.041776307 -0.04406225 -0.102346204 -0.040744092 -0.11366405 -0.05919675 0.19874124
0.030529952 0.012192532 -0.12801337 0.30691352 -0.09040577 0.18931843 0.002003464 -0.060098097
0.11946867 -0.10589944 -0.05915856 -0.14795306 0.18601358 -0.0245827 0.20795596 -0.035551343
0.3012534 0.07983196 -0.13316809 0.40630144 0.025176618 0.3166952 -0.07067083 0.07805198
0.31602517 -0.036320865 -0.00936319 -0.22266454 0.21431707 -0.06376587 0.07246807 -0.021915028
-0.13185385 -0.05682687 0.264558 0.03427923 -0.07103905 -0.08185761 -0.11304673 0.024806794
-0.24026066 0.2618632 0.014588632 0.25069457 -0.1637169 0.05207496 0.071114235 0.14059272
0.12755528 0.15483816 -0.29613194 -0.057562232 -0.23331335 -0.26511094 -0.20380959 -0.0048059844
0.05531448 0.06756777 0.067280106 0.12521118 -0.3440777 0.061574973 -0.20622261 0.08196146
-0.35116085 0.19330133 0.09713123 0.07783676 0.13148205 0.119669646 -0.20287223 0.1390966
-0.040018693 -0.011198952 -0.044623487 0.10643345 0.06096717 -0.23009056 0.06204781 -0.013949053
0.19413191 0.051121153 0.07248796 -0.06741205 -0.2337655 -0.020003634 0.12342677 0.15987125
-0.068612754 -0.019080447 0.0264672 0.01794119 0.12532541 -0.20245257 0.025727266 -0.3872631
-0.31432396 0.097037494 0.136096 0.104299456 -0.26212937 0.13353471 0.044008225 0.07071249
0.10064596 -0.25519112 0.043670204 0.009272388 -0.20995098 0.21207283 0.12078941 0.07978502
-0.061609637 0.1634938 -0.015155076 0.04131492 -0.28749448 0.043785233 0.2502713 0.12146514
0.08362823 0.030610766 -0.04060339 0.10942514 0.074864455 0.13533479 0.1108896 -0.17603984
-0.07428597 -0.0032284937 0.17065983 -0.33071688 0.059731867 -0.28795487 0.061274983 0.078399904
-0.23642361 -0.010325345 0.034320794 0.071060784 -0.2827658 -0.073643126 -0.31294733 -0.05415071
-0.36645237 0.085279524 0.10831455 -0.29446885 -0.026237864 -0.32608965 0.05352159 -0.22537585
-0.2555275 -0.046165157 -0.038074065 0.15644412 -0.2741751 -0.023288904 0.08347513 0.07152008
0.013799349 -0.08095039 -0.18810086 0.017382182 0.08096166 0.073108114 0.15166557 0.10752039
0.09729507 -0.21295358 -0.07219614 -0.1527158 0.15187712 0.027228076 0.060017377 -0.20940287

fc.3.bias f4 [2]
00000000: edad 8dbe 2a65 a93e
-0.27671757 0.33084995
